…
WARNING:tensorflow:From /home/mafo/anaconda3/envs/DeepFilter/lib/python3.7/site-packages/keras/backend/tensorflow_backend.py:3733: calling dropout (from tensorflow.python.ops.nn_ops) with keep_prob is deprecated and will be removed in a future version.
Instructions for updating:
Please use `rate` instead of `keep_prob`. Rate should be set to `rate = 1 - keep_prob`.

 Multibranch_LANLD

Model: "model_1"
__________________________________________________________________________________________________
Layer (type)                    Output Shape         Param #     Connected to
==================================================================================================
input_1 (InputLayer)            (None, 512, 1)       0
__________________________________________________________________________________________________
conv1d_1 (Conv1D)               (None, 512, 8)       32          input_1[0][0]
__________________________________________________________________________________________________
conv1d_2 (Conv1D)               (None, 512, 8)       48          input_1[0][0]
__________________________________________________________________________________________________
conv1d_3 (Conv1D)               (None, 512, 8)       80          input_1[0][0]
__________________________________________________________________________________________________
conv1d_4 (Conv1D)               (None, 512, 8)       128         input_1[0][0]
__________________________________________________________________________________________________
conv1d_5 (Conv1D)               (None, 512, 8)       32          input_1[0][0]
__________________________________________________________________________________________________
conv1d_6 (Conv1D)               (None, 512, 8)       48          input_1[0][0]
__________________________________________________________________________________________________
conv1d_7 (Conv1D)               (None, 512, 8)       80          input_1[0][0]
__________________________________________________________________________________________________
conv1d_8 (Conv1D)               (None, 512, 8)       128         input_1[0][0]
__________________________________________________________________________________________________
concatenate_1 (Concatenate)     (None, 512, 64)      0           conv1d_1[0][0]
                                                                 conv1d_2[0][0]
                                                                 conv1d_3[0][0]
                                                                 conv1d_4[0][0]
                                                                 conv1d_5[0][0]
                                                                 conv1d_6[0][0]
                                                                 conv1d_7[0][0]
                                                                 conv1d_8[0][0]
__________________________________________________________________________________________________
dropout_1 (Dropout)             (None, 512, 64)      0           concatenate_1[0][0]
__________________________________________________________________________________________________
batch_normalization_1 (BatchNor (None, 512, 64)      256         dropout_1[0][0]
__________________________________________________________________________________________________
conv1d_9 (Conv1D)               (None, 512, 10)      3210        batch_normalization_1[0][0]
__________________________________________________________________________________________________
conv1d_10 (Conv1D)              (None, 512, 10)      5770        batch_normalization_1[0][0]
__________________________________________________________________________________________________
conv1d_11 (Conv1D)              (None, 512, 10)      9610        batch_normalization_1[0][0]
__________________________________________________________________________________________________
conv1d_12 (Conv1D)              (None, 512, 10)      3210        batch_normalization_1[0][0]
__________________________________________________________________________________________________
conv1d_13 (Conv1D)              (None, 512, 10)      5770        batch_normalization_1[0][0]
__________________________________________________________________________________________________
conv1d_14 (Conv1D)              (None, 512, 10)      9610        batch_normalization_1[0][0]
__________________________________________________________________________________________________
concatenate_2 (Concatenate)     (None, 512, 60)      0           conv1d_9[0][0]
                                                                 conv1d_10[0][0]
                                                                 conv1d_11[0][0]
                                                                 conv1d_12[0][0]
                                                                 conv1d_13[0][0]
                                                                 conv1d_14[0][0]
__________________________________________________________________________________________________
dropout_2 (Dropout)             (None, 512, 60)      0           concatenate_2[0][0]
__________________________________________________________________________________________________
batch_normalization_2 (BatchNor (None, 512, 60)      240         dropout_2[0][0]
__________________________________________________________________________________________________
conv1d_15 (Conv1D)              (None, 512, 4)       724         batch_normalization_2[0][0]
__________________________________________________________________________________________________
conv1d_16 (Conv1D)              (None, 512, 4)       1204        batch_normalization_2[0][0]
__________________________________________________________________________________________________
conv1d_17 (Conv1D)              (None, 512, 4)       2164        batch_normalization_2[0][0]
__________________________________________________________________________________________________
conv1d_18 (Conv1D)              (None, 512, 4)       3604        batch_normalization_2[0][0]
__________________________________________________________________________________________________
conv1d_19 (Conv1D)              (None, 512, 4)       724         batch_normalization_2[0][0]
__________________________________________________________________________________________________
conv1d_20 (Conv1D)              (None, 512, 4)       1204        batch_normalization_2[0][0]
__________________________________________________________________________________________________
conv1d_21 (Conv1D)              (None, 512, 4)       2164        batch_normalization_2[0][0]
__________________________________________________________________________________________________
conv1d_22 (Conv1D)              (None, 512, 4)       3604        batch_normalization_2[0][0]
__________________________________________________________________________________________________
concatenate_3 (Concatenate)     (None, 512, 32)      0           conv1d_15[0][0]
                                                                 conv1d_16[0][0]
                                                                 conv1d_17[0][0]
                                                                 conv1d_18[0][0]
                                                                 conv1d_19[0][0]
                                                                 conv1d_20[0][0]
                                                                 conv1d_21[0][0]
                                                                 conv1d_22[0][0]
__________________________________________________________________________________________________
dropout_3 (Dropout)             (None, 512, 32)      0           concatenate_3[0][0]
__________________________________________________________________________________________________
batch_normalization_3 (BatchNor (None, 512, 32)      128         dropout_3[0][0]
__________________________________________________________________________________________________
conv1d_23 (Conv1D)              (None, 512, 5)       805         batch_normalization_3[0][0]
__________________________________________________________________________________________________
conv1d_24 (Conv1D)              (None, 512, 5)       1445        batch_normalization_3[0][0]
__________________________________________________________________________________________________
conv1d_25 (Conv1D)              (None, 512, 5)       2405        batch_normalization_3[0][0]
__________________________________________________________________________________________________
conv1d_26 (Conv1D)              (None, 512, 5)       805         batch_normalization_3[0][0]
__________________________________________________________________________________________________
conv1d_27 (Conv1D)              (None, 512, 5)       1445        batch_normalization_3[0][0]
__________________________________________________________________________________________________
conv1d_28 (Conv1D)              (None, 512, 5)       2405        batch_normalization_3[0][0]
__________________________________________________________________________________________________
concatenate_4 (Concatenate)     (None, 512, 30)      0           conv1d_23[0][0]
                                                                 conv1d_24[0][0]
                                                                 conv1d_25[0][0]
                                                                 conv1d_26[0][0]
                                                                 conv1d_27[0][0]
                                                                 conv1d_28[0][0]
__________________________________________________________________________________________________
dropout_4 (Dropout)             (None, 512, 30)      0           concatenate_4[0][0]
__________________________________________________________________________________________________
batch_normalization_4 (BatchNor (None, 512, 30)      120         dropout_4[0][0]
__________________________________________________________________________________________________
conv1d_29 (Conv1D)              (None, 512, 2)       182         batch_normalization_4[0][0]
__________________________________________________________________________________________________
conv1d_30 (Conv1D)              (None, 512, 2)       302         batch_normalization_4[0][0]
__________________________________________________________________________________________________
conv1d_31 (Conv1D)              (None, 512, 2)       542         batch_normalization_4[0][0]
__________________________________________________________________________________________________
conv1d_32 (Conv1D)              (None, 512, 2)       902         batch_normalization_4[0][0]
__________________________________________________________________________________________________
conv1d_33 (Conv1D)              (None, 512, 2)       182         batch_normalization_4[0][0]
__________________________________________________________________________________________________
conv1d_34 (Conv1D)              (None, 512, 2)       302         batch_normalization_4[0][0]
__________________________________________________________________________________________________
conv1d_35 (Conv1D)              (None, 512, 2)       542         batch_normalization_4[0][0]
__________________________________________________________________________________________________
conv1d_36 (Conv1D)              (None, 512, 2)       902         batch_normalization_4[0][0]
__________________________________________________________________________________________________
concatenate_5 (Concatenate)     (None, 512, 16)      0           conv1d_29[0][0]
                                                                 conv1d_30[0][0]
                                                                 conv1d_31[0][0]
                                                                 conv1d_32[0][0]
                                                                 conv1d_33[0][0]
                                                                 conv1d_34[0][0]
                                                                 conv1d_35[0][0]
                                                                 conv1d_36[0][0]
__________________________________________________________________________________________________
dropout_5 (Dropout)             (None, 512, 16)      0           concatenate_5[0][0]
__________________________________________________________________________________________________
batch_normalization_5 (BatchNor (None, 512, 16)      64          dropout_5[0][0]
__________________________________________________________________________________________________
conv1d_37 (Conv1D)              (None, 512, 2)       162         batch_normalization_5[0][0]
__________________________________________________________________________________________________
conv1d_38 (Conv1D)              (None, 512, 2)       290         batch_normalization_5[0][0]
__________________________________________________________________________________________________
conv1d_39 (Conv1D)              (None, 512, 2)       482         batch_normalization_5[0][0]
__________________________________________________________________________________________________
conv1d_40 (Conv1D)              (None, 512, 2)       162         batch_normalization_5[0][0]
__________________________________________________________________________________________________
conv1d_41 (Conv1D)              (None, 512, 2)       290         batch_normalization_5[0][0]
__________________________________________________________________________________________________
conv1d_42 (Conv1D)              (None, 512, 2)       482         batch_normalization_5[0][0]
__________________________________________________________________________________________________
concatenate_6 (Concatenate)     (None, 512, 12)      0           conv1d_37[0][0]
                                                                 conv1d_38[0][0]
                                                                 conv1d_39[0][0]
                                                                 conv1d_40[0][0]
                                                                 conv1d_41[0][0]
                                                                 conv1d_42[0][0]
__________________________________________________________________________________________________
dropout_6 (Dropout)             (None, 512, 12)      0           concatenate_6[0][0]
__________________________________________________________________________________________________
batch_normalization_6 (BatchNor (None, 512, 12)      48          dropout_6[0][0]
__________________________________________________________________________________________________
conv1d_43 (Conv1D)              (None, 512, 1)       109         batch_normalization_6[0][0]
==================================================================================================
Total params: 69,147
Trainable params: 68,719
Non-trainable params: 428
__________________________________________________________________________________________________
WARNING:tensorflow:From /home/mafo/anaconda3/envs/DeepFilter/lib/python3.7/site-packages/keras/optimizers.py:793: The name tf.train.Optimizer is deprecated. Please use tf.compat.v1.train.Optimizer instead.
…
